src/matlab/lib/DeepWhistle/Li_et_al_2020_deep_silbido_361x1500.onnx (onnx, 303077 bytes, 23 tensors)

conv1.weight f4 [32, 1, 5, 5]
000000 a0 f8 26 3e 56 58 db 3d a7 9c d5 bd 97 64 01 3b
       0.1630578 0.10710208 -0.1043027 0.0019743794
000010 a1 58 4d be b8 60 8d bd 9e bb c3 bb 04 f9 d3 3b
       -0.2005334 -0.06903213 -0.0059732934 0.006468894
000020 30 4e 13 3e 14 4e b5 bd 54 26 52 be 49 24 e2 bd
       0.14385295 -0.08852783 -0.20522434 -0.11042077
000030 64 59 dc 3d f7 73 a2 3d 9f 65 af 3d 9a 8a 5c be
       0.107592374 0.07932275 0.085643046 -0.21537247
000040 98 70 05 3d a1 af 2f 3e 4a 9a 41 b9 bb 7e dd bc
       0.03257808 0.17156841 -0.00018463391 -0.027037969
000050 58 1f 76 3e 38 08 97 bb bd 3f 4c bd aa 16 1c be
       0.24035394 -0.004609134 -0.049865473 -0.1524302
000060 a3 c5 f3 3d 7c 45 df be 91 8b 9a 3e f1 fd 1f 3f
       0.119029306 -0.436077 0.30184606 0.6249686
000070 35 c9 a6 bc 3e 79 06 bf 3c 55 4c 3d 9e af 8f 3e
       -0.020359615 -0.5252875 0.049885973 0.28063673
000080 11 fa 84 be 4b 00 d8 3c 1e 4c e3 bc 85 3f 21 3d
       -0.25972036 0.026367327 -0.027746256 0.039367218
000090 2d 5a 8d 3e 9d 9e e5 be 0a 8b b9 3d 2a 3a 09 3e
       0.2760786 -0.44847575 0.09059723 0.13401094
0000a0 a8 7e a5 be 8f 7f ec be 42 79 f4 3e fd 40 44 3c
       -0.32323194 -0.4619107 0.47748762 0.011978385
0000b0 39 02 83 3e 76 57 1c 3f 64 3a 1c 3c 12 f5 25 bf
       0.25587633 0.61070955 0.009535406 -0.6482707
0000c0 d4 be de bd 2e 25 1b 3e bf f9 b4 bd 95 3b 10 3d
       -0.10876241 0.15150902 -0.08836698 0.03521307
0000d0 4f c2 a9 3d bd 29 05 3e bc 77 1b be 49 cc 62 3d
       0.082890145 0.13004203 -0.15182394 0.055370603
0000e0 d1 98 a4 3d fa 4a 8f bd 0e 1a 31 bd 56 dd 95 3c
       0.0803696 -0.069967225 -0.04323774 0.018294018
0000f0 cd bf 5e 3d 36 d7 87 be 9b a1 90 3d 96 d5 aa bc
       0.054382134 -0.2653138 0.07062074 -0.020853799
000100 7a 54 2e 3e c9 02 14 3d d4 e7 c8 3a e9 64 94 3c
       0.17024413 0.03613547 0.0015327879 0.018114524
000110 62 1f d5 bd 92 18 e0 bc 1e be 60 bc 2f 46 0e 3e
       -0.104063764 -0.027355466 -0.0137172025 0.1389396
000120 15 54 de bd b9 66 ac 3c 64 33 ca bc b7 99 a6 bd
       -0.10855881 0.021045076 -0.024682708 -0.081347875
000130 61 40 ac 3d 55 54 7f 3e 78 2e ae be 52 b0 7b 3e
       0.08410717 0.24934514 -0.34019828 0.2457898
000140 8a 69 20 3e 81 fb dd bc ba be 68 be cd 32 2d 3e
       0.1566526 -0.027097465 -0.22729006 0.1691391
000150 4d c8 94 be 91 81 0f 3e 7d a6 b7 be 4b e2 9c be
       -0.29059067 0.1401427 -0.35869208 -0.30641398
000160 49 83 71 3e 16 ff 50 3d 1d 45 1f 3c 85 02 61 3e
       0.23585238 0.05102452 0.009721068 0.21973617
000170 75 c0 29 3f af ba e0 bd c6 98 71 be b8 18 03 bf
       0.6630929 -0.10973107 -0.23593435 -0.5120959
000180 44 ca 20 be 52 05 64 3e 78 f6 9a 3c a3 05 35 3e
       -0.15702158 0.22267655 0.018916354 0.17677931
000190 e9 07 44 3d 05 fb 02 bd fd b7 61 bd 64 d1 0e bc
       0.047859106 -0.031977672 -0.055107106 -0.008716915
0001a0 f5 2b 08 3d 96 34 ca bc d9 e1 ae 3d be 14 1c 3d
       0.033245046 -0.024683278 0.08539171 0.03810572
0001b0 cc 53 93 bc 4d 35 6b bc d8 ce 71 bd e3 62 98 bd
       -0.017984293 -0.01435597 -0.059035152 -0.07440736
0001c0 ef 0e c8 3c 4c 9f f0 3c f2 30 95 3c 5b d9 e0 3d
       0.024421183 0.029372834 0.018211816 0.10978957
0001d0 13 88 a5 bc 0e 99 75 3c 2f 85 d7 bd f9 05 2f 3d
       -0.020206487 0.014990104 -0.1052345 0.042730305
0001e0 0a c4 6a bd 07 28 b4 3b a1 2e 36 bd c8 d1 a3 3d
       -0.057315864 0.0054979357 -0.044478063 0.07998997
0001f0 3e e3 4c bd 81 99 d4 3d 68 97 81 bd 94 de 4e be
       -0.050021403 0.10380841 -0.063277066 -0.20202094
000200 c2 97 26 3f d5 30 da be 5c 23 0e be f4 34 d0 3d
       0.65075314 -0.4261538 -0.13880676 0.1016635
000210 2a a5 19 bd 8f bf d5 bb f8 2a cd bc 74 aa 23 3e
       -0.03751103 -0.0065230797 -0.025044903 0.15982991
000220 38 bb 8e bd be 86 96 be 55 b4 d5 bd ec fd a3 3e
       -0.06969303 -0.29399675 -0.10434786 0.32029665
000230 58 db 8a b8 3c 7b c1 3d f3 3d bf 3e 71 40 88 be
       -6.621209e-05 0.09447333 0.3735195 -0.26611665
000240 76 3d 65 be e7 92 1f be 95 48 1e 3e 06 e3 67 bd
       -0.22386727 -0.15583383 0.15457375 -0.05661299
000250 38 89 a3 be fe 92 d4 3e 79 ed ab 3b 97 ae 3d 3c
       -0.31940627 0.41518396 0.005246815 0.01157727
000260 18 ec 5b bd d6 54 e2 3d 62 c0 d5 bd 1e 0f 14 3e
       -0.053691953 0.110513374 -0.10437085 0.14458892
000270 c6 af d8 3d 2f f6 a6 bc f0 3d 19 be 7c 4f 2f be
       0.10580401 -0.020381061 -0.14965034 -0.17120165
000280 0f 87 c4 b7 e2 d6 dc 3b ac 20 50 bc bb ed 27 3e
       -2.3427912e-05 0.006739483 -0.012703102 0.1639928
000290 26 b7 92 bd b8 ff 73 3d 67 4d e7 3d 3d 3e 6b 3b
       -0.07163839 0.059570044 0.1129406 0.0035895251
0002a0 bc ba 94 bc e9 8a 31 be 6b f4 a0 bd 35 c7 62 3d
       -0.018155448 -0.17338146 -0.07859119 0.05536576
0002b0 b6 63 26 3d cf be d3 3d 22 f5 4a be c2 31 9a 3e
       0.040622436 0.10339128 -0.19820073 0.30116087
0002c0 3d 7e c3 bb 57 c1 b2 3a 42 ca 04 bd fe 54 ed bd
       -0.0059659765 0.0013637942 -0.03241945 -0.115884766
0002d0 15 9a e0 3d 36 f6 7a be 4b a6 eb bd 28 c2 8c 3e
       0.10966889 -0.24507985 -0.11506327 0.2749188
0002e0 8e 1c f0 bd f2 38 9b bd 8c c4 78 3d db bd 2c 3e
       -0.117241964 -0.07579221 0.060734317 0.16869299
0002f0 9a 2a 8f 3d 80 e5 95 bd f2 96 58 3e 1e 08 c9 3e
       0.069905475 -0.07319164 0.21151331 0.39264005
000300 9d c1 7a be c1 cd 7f bd 16 8c b7 be a6 7d b0 be
       -0.2448792 -0.06245208 -0.35849065 -0.34470862
000310 3c 36 e9 3d fe cf 84 be 6a b3 56 be 69 b4 36 3f
       0.113872975 -0.25939935 -0.20966879 0.71369034
000320 13 a6 09 be 13 0f 69 3e 1b e6 3d 3d cf 3a e2 bd
       -0.13442259 0.22759657 0.046362024 -0.11046373
000330 02 13 33 bd 70 56 77 bd dd 55 12 3d 79 a4 3c 3c
       -0.0437193 -0.060385168 0.035726417 0.011513823
000340 af 44 14 3e 81 b2 4a be ee 71 a6 bd bb 27 e2 3c
       0.14479326 -0.19794656 -0.08127199 0.027606836
000350 4b 57 1c 3d d7 7d 82 be ab 57 8c 3e 60 b7 9a bc
       0.038169187 -0.25486633 0.27410635 -0.018886268
000360 77 f2 80 3b 86 c8 7e be 7a 97 b4 3d 30 ef 4f 3e
       0.003935154 -0.24881181 0.08817954 0.20306087
000370 a1 b6 8f 3e 6d 89 62 be 64 13 96 3d 73 6a 00 3e
       0.28069022 -0.22122736 0.07327917 0.12540607
000380 6f c6 74 be 34 c4 92 be 84 91 d8 ba 73 01 89 bd
       -0.23903821 -0.28665316 -0.0016522859 -0.066897295
000390 57 04 33 3c 83 f3 b5 bd a8 b4 93 be 58 ec 8b bd
       0.010926328 -0.08884337 -0.28848767 -0.06832188
0003a0 29 01 69 bd da 31 eb b9 92 33 5d bb 20 a0 e3 be
       -0.056885872 -0.00044859835 -0.0033752662 -0.44458103
0003b0 ab a1 7b be b6 8e a1 be 3b b6 9d bd af 1a 8e be
       -0.2457339 -0.31554192 -0.07700773 -0.27754733
0003c0 ac 3b fa 3d 07 96 7f 3d 56 b1 00 3d f3 53 9c 3d
       0.12218413 0.062398937 0.03141912 0.076331995
0003d0 ed 09 1f 3c 72 ed 2e 3f 15 81 6a 3e 70 01 ab 3e
       0.009706956 0.6833106 0.22900803 0.33399534
0003e0 94 bd 63 3c eb f2 a9 3e 2a 8d 24 bf 9b be 8b 3e
       0.013900179 0.33193144 -0.642779 0.27293858
0003f0 a8 f2 84 be 4f ea 4f 3e 21 87 4f 3e 96 95 89 3e
       -0.25966382 0.20304225 0.20266391 0.26871938

conv1.bias f4 [32]
000000 a2 a0 8a 3c a0 a7 63 bd 88 30 de ba 80 83 01 bc
       0.016922299 -0.05557978 -0.0016951719 -0.007904887
000010 91 fd 09 ba a8 d0 f4 3c 31 56 9a bc 72 ed a5 bd
       -0.00052639196 0.029884651 -0.018839927 -0.0810193
000020 1b 7e f8 3b 00 c5 91 3e fe ec 25 3d 22 85 a7 bd
       0.0075833923 0.28470612 0.040509216 -0.0817969
000030 2f 04 30 bd 7f 64 7c bc 61 e2 98 3e fe 06 e9 3c
       -0.04297274 -0.0154048195 0.29860213 0.028445717
000040 c5 b7 c5 bc b5 fb 26 3c b2 55 f7 3d c7 fd c5 3c
       -0.02413548 0.010191848 0.12076892 0.024168862
000050 09 45 17 bd 14 82 96 3e 54 fd 79 bb 75 2f e0 bc
       -0.03693107 0.29396117 -0.003814538 -0.02736638
000060 22 a0 14 bf 52 4a 0b bf b2 9f a0 3c ab 6d 46 bd
       -0.58056843 -0.5441028 0.019607399 -0.04844443
000070 97 d4 b6 39 a3 ad c2 3c 0e e5 67 3d db 1a 9e bd
       0.00034872137 0.023764437 0.056614928 -0.07719966

conv10.weight f4 [1, 32, 3, 3]
000000 ff d0 22 be 76 72 aa bd 3c 7d bd 3e 58 ab d8 bc
       -0.15900038 -0.08322613 0.3700961 -0.02644889
000010 0c 4e 59 3c 5c ce 5c be 0a b4 b9 3d cf f4 81 3e
       0.013263237 -0.21563095 0.09067543 0.25382087
000020 d0 99 78 be 1a c9 81 3c a3 dd 8b 3d 44 d7 f2 bd
       -0.24277425 0.015842963 0.06829383 -0.11857465
000030 4f e5 19 bd 27 f4 1a bd cf f5 8c 3d ae aa f2 bb
       -0.0375722 -0.037830498 0.06882822 -0.0074056005
000040 74 9b 0a bd 35 a8 a3 3d 4c 6b 90 3d 5c 00 49 be
       -0.033839658 0.07991067 0.07051715 -0.19629043
000050 0a 7d 4f bc c2 57 89 be b6 2e ce 3e fa 3b e1 3d
       -0.012664089 -0.26824766 0.40270013 0.10997768
000060 9d d5 83 3d 41 87 cf bd 68 b1 8e 3c 5d 2e 88 be
       0.06437228 -0.101332195 0.017418578 -0.26597872
000070 4a a2 79 3e 3e 21 b2 bc 24 df aa 3c 04 7b 17 3e
       0.24378315 -0.021744367 0.020858355 0.1479302
000080 a0 52 e5 bd f6 77 69 bd 20 37 d3 3d b5 06 8d bd
       -0.111974 -0.05699917 0.10313249 -0.06886045
000090 6a 3e 70 be f6 05 49 3e 4d ce c8 3d 32 1b 03 3e
       -0.23461309 0.1963118 0.09804974 0.12803343
0000a0 00 7e 03 bf b2 83 fc 3c 46 e3 32 3e 2d b1 06 3e
       -0.51364136 0.030824516 0.1746951 0.13153525
0000b0 2a 22 40 bc 66 d7 92 bc 4d 65 37 3d 0e 2c 5b 3d
       -0.011726895 -0.017924976 0.044774342 0.05350881
0000c0 3c 25 2d 3e 54 b9 03 bf 55 22 87 3e 57 7c c0 ba
       0.16908735 -0.51454663 0.2639338 -0.0014685494
0000d0 05 93 a9 3e ec 76 a5 be 3d 3d f7 be 8e c6 04 3f
       0.3311998 -0.32317293 -0.4828891 0.5186547
0000e0 5a c9 25 be 0e ec c4 bd 29 eb be 3d 25 d2 78 3e
       -0.16190091 -0.09615336 0.09322197 0.24298914
0000f0 cf 5c b2 3e a8 43 a6 be 88 f7 13 be e2 3d bb bb
       0.34836432 -0.32473493 -0.14449894 -0.005714164
000100 6a 42 a8 3d dc d5 78 bd b2 4e a0 bd 96 90 87 3c
       0.082157925 -0.060750827 -0.0782751 0.016548436
000110 96 99 1b 3d f3 c3 21 3e f0 d5 81 be 21 60 d8 3d
       0.037988268 0.15797405 -0.25358534 0.1056521
000120 10 36 2a 3e c5 56 2c 3d 9f 3a c1 bd a2 d1 08 3b
       0.16622186 0.042074937 -0.09435009 0.0020876904
000130 7c ac 80 be 0d 13 21 3d d1 75 75 be 7b 03 cd 3e
       -0.25131595 0.03932481 -0.23970725 0.40041718
000140 cf 30 85 bd c5 32 e1 bc c0 36 0a 3e ea 48 86 bd
       -0.0650345 -0.02749003 0.13497448 -0.06556876
000150 51 fa 87 3d 44 4b 60 bd a2 56 c9 bc b8 8f 95 3c
       0.06639541 -0.05475928 -0.024577443 0.018257007
000160 ec 3b 9a be d2 1b 82 3e 80 51 ab bc 80 ef 77 bd
       -0.30123842 0.2541185 -0.020912886 -0.06053114
000170 ad 22 44 3d bc 37 15 3e e8 3a 1c 3e d9 71 95 be
       0.047884632 0.14572042 0.15256846 -0.2918842
000180 3d 19 07 be 6c 31 b2 bd a6 d6 78 3e f4 39 4c 3e
       -0.13193221 -0.08700833 0.24300632 0.19943982
000190 eb ab 8f be 5a af ee 3d 03 7d 41 bd 75 ee 35 3d
       -0.2806085 0.116545394 -0.04723836 0.044416863
0001a0 c4 5f dc 3a a0 c7 c7 bd 83 ab 64 3e 75 0d 23 be
       0.0016813208 -0.09754872 0.22331052 -0.15923102
0001b0 a0 ed fc 3d 7d de 20 bd d0 f2 8b bd 87 f1 c8 bd
       0.12350011 -0.03927468 -0.06833422 -0.09811693
0001c0 28 85 c2 bc be 75 ae 3d ea e0 cb 3c d8 a1 41 b9
       -0.023745134 0.08518551 0.02488752 -0.00018466206
0001d0 54 83 fd b9 77 1b 51 3e ec 73 ab bd ac f7 fe bc
       -0.00048353767 0.20420633 -0.0837172 -0.031123959
0001e0 da 12 b6 be 53 b3 5f 3e 27 20 10 be c3 61 65 3e
       -0.35561258 0.2184575 -0.14074765 0.22400574
0001f0 b2 7f 7f be 1b 14 62 3e b9 bc 77 3c 17 1c 12 bd
       -0.24951056 0.22077982 0.015120679 -0.03567132
000200 9a 9b 4c 3c 9b 14 4d bc fb 08 52 3d 21 60 11 bd
       0.01248827 -0.01251712 0.051278096 -0.035492066
000210 69 46 8e bb 2f d4 47 3b 1b 1f 41 3b c5 17 44 3e
       -0.0043418896 0.0030491462 0.0029468003 0.19149692
000220 c2 6e a7 3b 68 f6 94 3c 70 7c a7 3c 78 45 25 3c
       0.005109639 0.018183902 0.020445079 0.010087363
000230 96 43 b8 bc 87 c2 84 3d 3e 9b ae bd 83 a1 3a 3d
       -0.022493165 0.06482416 -0.08525704 0.045564186
000240 ef ef 1d 3b 20 2e e1 bd b6 c2 78 bd 3a f7 02 be
       0.002409931 -0.10995126 -0.060732566 -0.12789622
000250 0f ee 5d 3c b4 f4 4d 3d 61 3f 8c 3e 13 c3 11 bd
       0.013545527 0.050282195 0.27392104 -0.035586428
000260 f5 5c c9 bb dd 8d e8 3d 56 b6 c8 39 32 7a 21 3e
       -0.0061451145 0.11355183 0.00038282824 0.1576927
000270 72 7d 97 be db 09 02 3c e5 bb f7 bc a9 94 ab bb
       -0.29587895 0.00793692 -0.030240962 -0.0052362275
000280 ca c0 65 3d e6 a3 35 bb ac 7d 1e 3c 10 73 30 be
       0.05609206 -0.00277161 0.009673517 -0.17231393
000290 d5 20 d7 3d f2 f6 9e be 06 5a ca 3e 9f cd a1 3d
       0.10504309 -0.3104778 0.39521807 0.07900547
0002a0 da 85 58 3e 87 63 c7 bd c9 18 5d be cd 7a 79 3e
       0.2114481 -0.0973578 -0.21591486 0.24363251
0002b0 b1 38 f7 bd 2a 12 1b be 6e 0a 39 be db 2d bb 3d
       -0.1207136 -0.15143648 -0.18070385 0.091396056
0002c0 99 9c 0d 3e 05 1f 63 be 15 1d f7 3d b8 d4 a7 3d
       0.13829269 -0.22179802 0.12066094 0.0819487
0002d0 28 4f 4d 3e 97 22 98 be f6 34 0a 3d 17 0f f0 3d
       0.20049727 -0.2971389 0.033741914 0.11721628
0002e0 62 13 c3 3d c5 23 f6 bd e2 45 66 be cc 80 c4 3d
       0.09525181 -0.12018541 -0.22487596 0.095948786
0002f0 0a 67 cb 3d 1c 86 a9 3c 03 11 2c bd f7 cf e1 3c
       0.099317625 0.020693831 -0.04200841 0.027564986
000300 ff ef 52 bd 02 f8 e9 3d 04 6d 81 bd b7 e0 f3 3c
       -0.05149841 0.11424257 -0.06319621 0.029770238
000310 1a 02 66 bd 63 c2 be 3c 9c 68 53 be 8c 22 05 3c
       -0.056154348 0.02328605 -0.20645374 0.008125912
000320 22 8e 7d 3e bf 8b b0 3e 05 9a 3a 3a b1 2d d4 be
       0.2476125 0.34481618 0.00071182876 -0.4144111
000330 77 c0 ae be c1 e5 53 3e 60 9f 1b 3e 80 f2 34 be
       -0.34131214 0.20693113 0.15197515 -0.17670631
000340 0d 28 38 be d8 60 8a 3e 86 7a 66 3e 3a 84 76 be
       -0.17984028 0.2702701 0.22507676 -0.24073878
000350 fb 56 a6 bd 0c 87 ca bd 48 8f cf 3e ce 4a 04 be
       -0.08122059 -0.098890394 0.40539002 -0.1291916
000360 70 41 30 3d 9e 00 30 bd 17 b1 87 bd 3b b9 ce bd
       0.043031156 -0.04296934 -0.06625574 -0.10093924
000370 1a e4 74 3e d0 4c a5 bd 3d b7 2c be 6b 33 2f 3e
       0.23915139 -0.080712914 -0.16866775 0.17109458
000380 d6 fc 1d bc 63 e9 d3 bd f1 25 ce 3c a3 77 91 3c
       -0.0096428 -0.10347249 0.025164576 0.017757243
000390 75 8c c6 3d be 1d d5 3e 48 7e 60 be 03 c8 2f 3c
       0.09694759 0.41624254 -0.21923172 0.010728839
0003a0 5f f8 13 be 99 4c c8 bd 3c 20 14 3c 17 4a 9b 3c
       -0.14450215 -0.09780235 0.009040888 0.018956227
0003b0 88 d0 ca 3c eb c8 77 be f5 ae 17 3e d7 1e b5 bc
       0.024757639 -0.24197738 0.14812835 -0.022109432
0003c0 b6 ae cf 3e 7b b5 09 bf b0 2b 51 3e 5c 83 af bd
       0.4056298 -0.5379254 0.20426822 -0.08569977
0003d0 a2 ba 95 3c e0 e1 1a 3d cf 78 08 3d 8b 47 0e 3e
       0.01827747 0.037813067 0.033318337 0.13894479
0003e0 66 33 28 be 6e 5f 03 bd 43 3e a8 3d 1f 4a ef bc
       -0.16425857 -0.03207343 0.082150005 -0.029210148
0003f0 ef 34 e3 3d 67 53 1a 3e 8a 93 cb be 44 20 26 3e
       0.11094081 0.15070878 -0.39761 0.16223246

88 f4 [32, 32, 3, 3]
000000 fd 33 af 3d c3 50 5e 3e 9e f0 a8 be bf 48 ff 3d
       0.08554838 0.21710496 -0.32996076 0.12465047
000010 e2 e3 cd 3d c5 e8 a4 be 75 72 53 3e d1 e7 b3 bd
       0.10053231 -0.3220884 0.2064913 -0.0878445
000020 7b 86 ca 3d d9 85 20 3d fa 8c cc 3e 11 62 b1 be
       0.09888931 0.039190147 0.39951307 -0.3464513
000030 1b 41 04 be 06 e1 55 3f 13 89 75 bf 1b 15 05 3e
       -0.12915461 0.83546484 -0.95912284 0.12996332
000040 9f 59 b9 bd 44 9d 3b 3e 65 a0 76 3d 23 2d 2a 3d
       -0.09050297 0.18321711 0.060211558 0.041546952
000050 5d a1 8a 3c 6e 00 29 3d dd a6 2f 3e 82 3e b8 be
       0.016922647 0.041260175 0.17153497 -0.3598519
000060 bc 48 77 3e 94 85 77 3e 82 47 be 3e 8b b7 2f be
       0.2414884 0.2417205 0.3716393 -0.1715986
000070 55 8a d7 be 1c d5 92 bf 10 83 cd 3e 90 ea 1d 3f
       -0.42097726 -1.1471286 0.40139055 0.6168604
000080 5e cf af 3f 89 d0 5b be 58 c9 d3 bd 35 c7 35 be
       1.3735158 -0.21466269 -0.10341138 -0.17751773
000090 01 f8 0b 3e b5 fd 3d 3e 76 4b e3 3d fc af 43 3d
       0.13668825 0.18553813 0.110983774 0.047775254
0000a0 7b c4 6b 3d fd fb e3 3d 31 28 72 3d b9 d9 fd 3d
       0.057560425 0.11132047 0.05912036 0.12395043
0000b0 8c 22 2d 3d 50 90 13 bf 7a 1d 30 3e fe 1c a6 be
       0.042269275 -0.5764208 0.17198744 -0.32443994
0000c0 ec ce f6 3e 5f 89 bf 3e 6f 5e 77 bf 27 5e ba 3e
       0.48204744 0.37409493 -0.9662847 0.36399958
0000d0 49 f5 c2 3e 06 82 18 be 74 96 51 3e d9 12 5e be
       0.38077763 -0.1489335 0.2046755 -0.21686877
0000e0 87 ca f0 3d 8d cf 54 3d 9b 94 0f 3e 8b c0 ab 3c
       0.11757379 0.05195575 0.14021532 0.020965835
0000f0 fd db 6a 3e fa 6d 91 bd 0f 74 03 3f 2d e1 3b 3c
       0.22935481 -0.071010545 0.51348966 0.01146726
000100 90 83 23 bd 22 91 e3 be d6 54 91 3e d5 1e 00 3e
       -0.03992039 -0.44446665 0.28385037 0.12511761
000110 1b ae 24 bd 8c 6a 23 bb 2d b2 f7 3e c2 51 c7 be
       -0.040205102 -0.0024935333 0.48378125 -0.38929564
000120 d5 be 6c 3e 70 b4 8c 3e ea 42 e4 be 6f d9 05 3e
       0.23119672 0.27481413 -0.445823 0.13071226
000130 fd 84 9a 3e ee 5d d4 be 2b bb 84 bd ef 90 99 be
       0.30179587 -0.41477913 -0.06481012 -0.29993388
000140 37 8b e1 3e af 72 10 bf 24 41 62 be 56 ea fa be
       0.44051525 -0.56424993 -0.22095162 -0.4900691
000150 5f f9 15 3e b9 bb 79 3e fc 2a 68 bd 12 e5 85 3e
       0.14645909 0.24388017 -0.056681618 0.2615133
000160 b0 8b 96 3e 51 0f eb 3c 10 6e 0c be d5 53 91 3e
       0.29403448 0.028693827 -0.1371386 0.2838427
000170 c0 88 16 bf 16 e8 90 be 61 c5 08 3e ca 17 04 3f
       -0.58802414 -0.28302068 0.13356544 0.515988
000180 be 9a 52 be a5 8d 72 3e eb 18 d7 bd a3 c5 ac 3e
       -0.20566842 0.23686846 -0.105027996 0.33744535
000190 65 32 88 bc a7 26 81 3f 59 7f 2b 3e 09 37 c8 be
       -0.016625592 1.0089921 0.16747798 -0.39104488
0001a0 d6 4d 08 3e 41 da ea bd 90 2f 07 bf c0 74 0e 3e
       0.13310942 -0.1146741 -0.5280695 0.13911724
0001b0 b8 b2 92 3e 0b 9e 6b be e3 c5 52 bf e1 1d 0c 3e
       0.28651977 -0.23009507 -0.823332 0.13683273
0001c0 f8 97 ff 3c 2d 7a f1 bd 86 c8 54 be 2e ee f4 bd
       0.031200394 -0.11790881 -0.20779619 -0.11959492
0001d0 49 c0 e3 3c de 60 d0 be 1b a7 d2 be e6 77 18 bf
       0.02780165 -0.40698904 -0.41143116 -0.5955795
0001e0 8a b3 ac 3e 32 03 20 3f 84 56 97 3e 08 4c a9 bd
       0.33730727 0.62504876 0.29558194 -0.08266455
0001f0 67 8f 50 be d9 40 f2 bd 55 eb 75 bd 15 15 8a bf
       -0.20367204 -0.11828775 -0.060038883 -1.0787684
000200 59 78 9c 3d 58 a8 f2 3e 92 55 5e bf 72 43 53 3f
       0.07640142 0.4739406 -0.8684932 0.8252479
000210 7a dc 50 bd dc 1d 3d 3d e7 0b 2a 3e 38 b1 0c 3e
       -0.050991513 0.046171054 0.16606103 0.13739479
000220 c7 3f 46 be a0 01 f4 bd 5f 37 31 3d 15 0a 3e 3e
       -0.19360267 -0.119143724 0.043265697 0.18558533
000230 6c a0 6c 3e 3f e1 97 3c fc d4 0f 3e 97 e0 53 3e
       0.23108071 0.018540023 0.14046091 0.20691143
000240 f0 13 8b be b1 8b cd bd a1 c9 3b 3f 00 c2 a7 3e
       -0.2716365 -0.1003641 0.73354536 0.32765198
000250 3b 90 0d bf b0 b1 93 3f da e0 2c 3e 3f a0 d6 be
       -0.55298203 1.1538601 0.16882649 -0.41919133
000260 9d d9 07 3e a8 78 b5 3d d7 6e 1b 3d 9c 69 9a 3e
       0.13266607 0.08860904 0.037947502 0.301587
000270 67 63 e1 3e 78 08 9f 3f 53 9f f8 3f f0 e0 56 3d
       0.4402115 1.242446 1.9423622 0.05246061
000280 14 5a d9 3e ff f9 e5 3e cf 3a 75 be 0a 9f bb be
       0.42451537 0.44917294 -0.23948215 -0.36644775
000290 3b ea 32 bf 7a 6a ea 3e 71 a8 4d 3e e9 0c 63 3f
       -0.6988866 0.4578436 0.20083787 0.88691574
0002a0 9f 89 66 3d 95 22 cd 3d ce e1 a7 3e 03 b0 9e 3e
       0.05628359 0.100163616 0.32789463 0.3099366
0002b0 de 85 19 3d 69 9b 9d 3f 5a f8 83 be dc 8f 0b bf
       0.03748118 1.2313052 -0.25775415 -0.54516387
0002c0 ca ea b6 bf c5 8d ef bc e1 15 c7 3e 04 22 dc be
       -1.4290402 -0.029242406 0.3888388 -0.42994702
0002d0 92 f3 41 be 4f f0 99 be d7 8d dd 3e 05 f9 18 bd
       -0.18940571 -0.30066153 0.43272278 -0.03734686
0002e0 60 f7 41 3e 64 da 81 be 95 a4 a1 3e d0 71 19 3e
       0.18942022 -0.2536193 0.3157088 0.14984822
0002f0 4c 3e 6c 3d d7 76 de be d1 49 8b be f5 45 85 3d
       0.0576766 -0.43450043 -0.27204755 0.06507484
000300 1f 0c 8b bc 7c a1 56 3e a9 00 9c be d3 67 04 3d
       -0.016973553 0.20960039 -0.30469254 0.032325577
000310 ab 03 c7 3e 32 11 39 3e 1d 57 97 3d 5c eb ad bd
       0.38869986 0.18072966 0.073896624 -0.08492157
000320 d4 8f 92 bc 43 a5 26 3c 4f bd 69 be b0 a8 72 3e
       -0.017890848 0.010171237 -0.22826122 0.23697162
000330 d7 b1 37 3e 2c 59 3b be b3 a8 88 3d ec e7 d1 3d
       0.17938934 -0.18295735 0.06672802 0.10249314
000340 92 f2 9c bd 2d eb 57 3e d4 f0 30 3e 01 a3 2b 3e
       -0.07663454 0.21085806 0.17279369 0.167614
000350 33 95 f7 be 74 6e d7 bd 71 46 5e bc 28 a6 1f be
       -0.48356017 -0.10519114 -0.013566599 -0.15590727
000360 f1 97 03 3d 80 08 89 be 6f f6 57 3e 88 ca 83 3f
       0.032127324 -0.26764297 0.210901 1.0296183
000370 d8 2e 4f 3f bd 85 96 3f 60 02 0a bf ba 5c 25 bf
       0.8093085 1.1759564 -0.53909874 -0.64594615
000380 fa e5 36 bf 40 9a 82 bf a4 08 11 bf ec 41 a1 bf
       -0.71444666 -1.0203323 -0.5665381 -1.2598243
000390 a8 ea 12 3f 80 82 e1 3e d6 3e 4b 3f 2a ac a6 be
       0.5738931 0.44044876 0.79392755 -0.32553226
0003a0 1f f4 09 bf 62 22 e9 be e4 22 61 3d fd f8 85 3d
       -0.53888124 -0.45534045 0.054964915 0.06541631
0003b0 62 4f 30 bd d6 a4 e5 3e c4 c4 74 be 62 c8 85 bf
       -0.043044455 0.44852322 -0.23903185 -1.0451777
0003c0 99 eb 8a 3d b6 41 00 be 7a 92 8c 3e 19 98 a3 3d
       0.06783218 -0.12525067 0.27455503 0.07987995
0003d0 74 89 ce bd f9 b5 01 c0 d3 3f 51 3f c0 cd 73 3d
       -0.10084811 -2.0267317 0.81738013 0.05952239
0003e0 3e 83 c5 3e 8a 5e ec be 8e 6f e5 3c 95 91 c2 3d
       0.38576692 -0.46165878 0.028007295 0.09500424
0003f0 c8 1e 96 bd d4 a2 a6 bd 68 cc ac bc ee 61 85 3e
       -0.0733009 -0.08136526 -0.021093562 0.26051277

89 f4 [32]
000000 9e 30 98 bf 52 4e 1b be 1b 94 63 3e 79 76 89 be
       -1.1889837 -0.15166596 0.22224467 -0.268482
000010 88 ce 3d be b2 a1 50 bf 84 e0 99 be c0 03 25 c0
       -0.18535817 -0.8149673 -0.30054104 -2.578354
000020 f3 75 8c bf c4 89 09 bf cf 56 26 bf f2 44 bc bd
       -1.0973495 -0.5372584 -0.6497621 -0.09192838
000030 3b 48 b5 be 60 c2 40 bf 67 c1 f8 be e2 ec 85 bf
       -0.3540667 -0.7529659 -0.48585054 -1.0462916
000040 94 36 be be e7 ce d6 3d 1b 21 03 bf 02 33 77 bf
       -0.37151015 0.10488682 -0.5122239 -0.96562207
000050 40 c1 a6 bf 4b 32 76 bf 96 21 df bf a4 08 17 bf
       -1.3027725 -0.9617049 -1.7432125 -0.5899756
000060 0e af 1b bf 02 6d 20 bf 33 d0 9d bc 94 a5 17 bf
       -0.6081399 -0.6266633 -0.019264316 -0.5923703
000070 00 5a 0d bf ec 97 27 bf 58 db 1e c0 da c7 4c bf
       -0.55215454 -0.6546619 -2.4821377 -0.7999245

91 f4 [32, 32, 3, 3]
000000 e9 e6 9a bd a6 6e 04 3d ad 89 83 bd 95 40 3b 3c
       -0.07563574 0.032332085 -0.06422744 0.011428972
000010 f9 cc 6e 3d 72 b5 8b 3c d0 a9 93 bd d7 df d4 3c
       0.058300946 0.017054293 -0.072101235 0.025985641
000020 e2 87 5c bc ab e4 cd bb 87 5e b0 bb 23 91 d0 bb
       -0.013460131 -0.006283363 -0.0053823623 -0.006364958
000030 23 7d 9f 3d f7 b3 a5 3b 5d 56 ae 3b 63 fb fa bc
       0.0778754 0.005056854 0.005320354 -0.030637449
000040 c7 eb b8 3b f5 f7 f3 3c 13 33 44 3d 88 ea 99 3c
       0.005643341 0.029781321 0.04790027 0.018788591
000050 6d 4e 3d 3d be 02 1c bd 0b 6d e0 bc 7e 8e 2a 3c
       0.04621737 -0.038088553 -0.027395746 0.010409949
000060 4d c5 a6 3c bc bc 43 3c cd d8 58 bc 7e ae 47 3d
       0.020357752 0.011946853 -0.013235283 0.048750393
000070 13 c9 0e 3d ab 64 a2 3b 80 5f 5e 3d 53 73 1f bc
       0.034859728 0.004955848 0.054290295 -0.009732085
000080 17 99 e5 3c d9 f2 03 3d ab da 1d 3d dc 7d 3c 3c
       0.0280271 0.03221402 0.038538616 0.011504617
000090 e7 bb b0 3c a5 d1 2c bd 2f 0e e8 bc 4e 4d ef 3c
       0.021573974 -0.04219212 -0.028327076 0.029211666
0000a0 e2 82 81 bd aa 87 e0 bc 8b 71 19 3c ae ee fb 3a
       -0.06323792 -0.02740844 0.00936545 0.0019220912
0000b0 bb 91 1c bd 88 55 57 bc 21 a9 10 3d 8a f6 44 bd
       -0.038224917 -0.013142951 0.035317544 -0.04808668
0000c0 39 f0 23 3d be 1b bb 3b 70 04 69 bd d7 dd 12 bc
       0.040024016 0.0057100942 -0.056888998 -0.008964024
0000d0 6e c4 23 3c 20 b7 05 bd 0b c3 e2 bb 76 5d ed bb
       0.009995563 -0.032645345 -0.0069202236 -0.0072438074
0000e0 ac 91 af bb 03 a6 5c 3d 55 28 c3 ba c3 cd 41 bd
       -0.0053579416 0.05386926 -0.0014889339 -0.04731537
0000f0 00 87 3c bd 1d 13 f4 3c 35 fe 3b 3d 8f 13 c0 3c
       -0.046027184 0.02979427 0.045896728 0.023446826
000100 bb c5 be 3a 7e 4e da 3c 51 e3 35 3c 18 95 20 bd
       0.0014554778 0.026648756 0.01110156 -0.039204687
000110 a7 2c 37 3d 90 54 16 bc c4 56 e8 3c bb 2f 6b 3d
       0.04472032 -0.009175435 0.028361686 0.057418566
000120 49 9d 32 3d ab c4 8c 3c 5d f0 b3 bb 1d 26 65 bb
       0.04360703 0.017183622 -0.0054913 -0.0034965344
000130 1a af 19 bd 76 b3 83 3c ea d3 25 3c 07 25 72 3c
       -0.037520505 0.016076785 0.010121325 0.014779336
000140 b4 37 91 bb e3 16 a5 3c f6 ff d9 3c 22 0a 83 bc
       -0.004431689 0.020152515 0.02661131 -0.015996043
000150 96 f9 c2 bc b0 5b 5e bc f4 ca 45 3b b8 fd c2 ba
       -0.023800652 -0.013571665 0.0030180784 -0.001487664
000160 61 f9 7e bb 4a 29 07 bd 72 2d c1 bc 04 e3 8b 3c
       -0.0038905966 -0.03299836 -0.02358124 0.017076023
000170 da 0a bb bd 2f 1c 9f bc 88 77 28 3d 9b c3 cb bc
       -0.09132929 -0.019422619 0.04112962 -0.024873545
000180 be f9 d8 bc 93 c5 24 3d 83 f7 c4 3b 6d fa 9a 3b
       -0.026486274 0.040227484 0.006010951 0.00472956
000190 31 46 15 bd 0c 2a a8 bd 86 60 e9 bc 01 c5 88 3c
       -0.036443893 -0.08211145 -0.028488409 0.016695501
0001a0 2d c2 63 bc 93 4d 12 bd e4 7a 47 3c 23 9d 2d bc
       -0.013901276 -0.03571851 0.0121752955 -0.010596546
0001b0 30 e4 29 3c f0 26 15 3d 7d 7f af 3c 95 cf 1b 3c
       0.010369346 0.036414087 0.021423096 0.009509941
0001c0 d4 3b 21 3d 78 5c 18 3d fc 07 ff 3c 31 9e 42 3d
       0.039363697 0.03719756 0.031131737 0.047514144
0001d0 c7 d2 2f 3d 1b 5c e6 3a dd 7e 11 bd da 8c 58 3d
       0.042925622 0.0017575057 -0.035521377 0.0528687
0001e0 f0 1c fd 3c 77 92 4a 3d ae 25 4b 3c 1f 26 ba bc
       0.030897588 0.049456086 0.01239912 -0.022723256
0001f0 3b 64 22 3b 5b 46 45 bd 0b 3a cd 3c 32 0c 04 3d
       0.002477898 -0.0481628 0.025052091 0.032238193
000200 a1 df a5 3c e0 2c 47 bb 0a 07 0f bc 07 f0 3f 3c
       0.020248236 -0.0030391738 -0.008729706 0.011714942
000210 36 28 94 3c b5 a4 37 3c 6c a6 07 bd 7f e9 6a bb
       0.01808558 0.011208703 -0.033117697 -0.003584474
000220 fb 8a f4 bc 9d ff 6d 3b 28 cf 25 3d 3a 53 f0 3c
       -0.029851427 0.0036315687 0.040480763 0.02933656
000230 45 a0 80 3d 3c 54 fa bc f8 d3 ed bc b4 e3 3b bd
       0.06280569 -0.030557744 -0.029031739 -0.04587145
000240 d4 b3 96 3c 79 55 9d bc 12 dc 1c 3d 96 ef 48 bc
       0.018396296 -0.019205796 0.038295813 -0.012264153
000250 c2 8d 01 bd 9a 6d 10 3c 6c 67 a2 3d eb 20 b0 3b
       -0.03162933 0.008815194 0.079298824 0.005375018
000260 f9 5b 35 3d 58 0c 8f bd 62 41 80 3d 62 3f a0 3c
       0.044277165 -0.06984776 0.06262471 0.019561473
000270 6b c1 cc 3c 3a f8 ff 3c 84 de 22 bd f9 8f 1e bd
       0.024994573 0.031246293 -0.03976299 -0.03871152
000280 d4 05 73 3c 88 27 80 bd 65 04 2f 3c 54 1f 5c 3d
       0.0148329325 -0.0625754 0.0106822 0.053740814
000290 6c bb 9a 3c e2 c5 04 bc d4 2b 7c 3c 83 7c ac 3c
       0.018888198 -0.00810382 0.015391309 0.021055466
0002a0 f3 74 20 3d e1 84 e6 3c 02 5b 05 bd 48 55 2c 3d
       0.03917403 0.028139533 -0.032557495 0.042073518
0002b0 02 da 49 3d e5 b4 2d 3b a6 d9 41 bd 48 3e 6b 3b
       0.049280174 0.0026505527 -0.047326706 0.0035895277
0002c0 57 fd 9b bb 91 e0 3d 3c e8 2b 56 3d 7b 60 2d bd
       -0.004760425 0.011589185 0.052287966 -0.04232834
0002d0 60 ca 57 bc 8e ab 12 bc 36 2b 36 3d a5 6c 94 bb
       -0.013170809 -0.008952035 0.044474803 -0.004529553
0002e0 b3 35 70 bc 29 1a bb bc f1 13 15 bc 5d e9 1f bd
       -0.01466124 -0.022839623 -0.009098993 -0.039040912
0002f0 17 bc 27 bd e2 1f 95 3c 6b 45 22 bc 3f 1c db bc
       -0.04095086 0.01820368 -0.009904246 -0.026746867
000300 04 1b 95 3a 92 cf 1d 3d 99 68 85 bc 3e af a9 bc
       0.0011375849 0.038528033 -0.016285228 -0.020713445
000310 60 26 99 3b 7e 2d e5 3c 24 32 07 3d e9 fe dc 3d
       0.004673764 0.027975794 0.033006802 0.10790808
000320 fa 1d 8f bc 1a 8e 39 bc c0 51 82 3c 55 3f ea bc
       -0.017470349 -0.011325384 0.015908122 -0.028594652
000330 13 9d 73 3c 3f 55 d4 3c 01 b9 93 3c a5 5d 93 bb
       0.014868992 0.025919555 0.018032553 -0.0044972473
000340 ae fe 71 bc c9 5b 40 bc e2 bf 69 bd 30 b2 40 bc
       -0.014770193 -0.011740633 -0.05706776 -0.011761233
000350 10 07 12 bc ac 6f 06 bc 0d ef d3 3c 1f b3 fe 3c
       -0.008912817 -0.008205336 0.025870824 0.031091271
000360 6b 8b fd bc 2b ab 5e 3d bd a5 dd 3b 50 b7 4c bc
       -0.030950269 0.054362457 0.0067641423 -0.012494877
000370 99 70 13 bb 6c 00 a4 3b 3e ef 93 bb f1 a8 2c bc
       -0.0022497533 0.005004933 -0.004514604 -0.010538326
000380 5e 65 ba bb 57 81 75 bc a4 85 cc bc 35 42 f2 3c
       -0.0056883534 -0.01498445 -0.024966069 0.029572586
000390 6e e2 55 bb e1 52 06 bc fa a2 dd bc c0 be 86 3c
       -0.0032636183 -0.008198471 -0.027055252 0.016448379
0003a0 c3 63 c5 bc ee 28 45 bd c4 fc 92 bb f3 8c 1f 3d
       -0.024095422 -0.048134737 -0.0044856984 0.03895278
0003b0 21 0f 6a ba ad a9 ab bc 25 bf 69 bb 91 8d 24 3d
       -0.0008928646 -0.020954931 -0.003566691 0.04017407
0003c0 7b af 17 3d be ef 0e bd b1 59 91 3c 87 d8 5f bc
       0.037032586 -0.034896605 0.017742964 -0.013662464
0003d0 8f bd d5 bc 1c b3 67 3d 44 71 ca bc 59 91 9a bc
       -0.026091365 0.056567296 -0.024712212 -0.018868135
0003e0 08 ee b6 3b e9 85 c7 3d 93 5c 88 3c 77 42 53 3c
       0.0055825748 0.09742338 0.016645705 0.012894264
0003f0 3a 9f 97 3d 11 d1 fd 3c 36 2c 02 bd 20 3c 40 3d
       0.07403417 0.03098348 -0.031780444 0.04693234

92 f4 [32]
000000 07 a0 f3 bd 98 c6 cb bc 1a 59 7b bb bc 59 cd bc
       -0.11895757 -0.02487497 -0.003835267 -0.025067203
000010 f6 ff bc 3c 9e 43 78 3e 98 b8 0d bc 9f a2 b8 3d
       0.02307127 0.24244544 -0.008649968 0.090153925
000020 f6 c2 d3 bd 90 85 0c 3c aa 9d 66 bd f8 5f 96 3c
       -0.1033992 0.008576766 -0.056302704 0.018356308
000030 86 76 0f 3e 27 80 25 be a8 9a 09 bd 5a 12 f3 bd
       0.14010057 -0.16162167 -0.033594757 -0.11868735
000040 b4 35 1b be b3 6b 8d bd cb e2 2e be 53 27 57 bd
       -0.15157205 -0.069053076 -0.17078702 -0.052527737
000050 91 29 67 be e5 b8 6a 3e b0 61 e9 3a 2e 43 4b 3c
       -0.2257445 0.22922094 0.0017805602 0.012406154
000060 d8 43 0f bd e4 d4 40 3c 74 91 79 3d ac 4c c5 bd
       -0.03497681 0.011769507 0.06092973 -0.096337646
000070 13 26 84 bd c2 60 ee bd 22 28 a9 3d be 1d 12 bd
       -0.064525746 -0.11639549 0.08259608 -0.035672896

94 f4 [32, 32, 3, 3]
000000 00 00 00 80 00 00 00 80 00 00 00 80 00 00 00 80
       -0.0 -0.0 -0.0 -0.0
000010 00 00 00 80 00 00 00 80 00 00 00 80 00 00 00 80
       -0.0 -0.0 -0.0 -0.0
000020 00 00 00 00 00 00 00 00 00 00 00 00 00 00 00 80
       0.0 0.0 0.0 -0.0
000030 00 00 00 80 00 00 00 80 00 00 00 00 00 00 00 00
       -0.0 -0.0 0.0 0.0
000040 00 00 00 00 00 00 00 80 00 00 00 80 00 00 00 80
       0.0 -0.0 -0.0 -0.0
000050 00 00 00 00 00 00 00 00 00 00 00 80 00 00 00 00
       0.0 0.0 -0.0 0.0
000060 00 00 00 00 00 00 00 80 00 00 00 00 00 00 00 00
       0.0 -0.0 0.0 0.0
000070 00 00 00 80 00 00 00 00 00 00 00 80 00 00 00 00
       -0.0 0.0 -0.0 0.0
000080 00 00 00 80 00 00 00 80 00 00 00 80 00 00 00 00
       -0.0 -0.0 -0.0 0.0
000090 00 00 00 00 00 00 00 00 00 00 00 00 00 00 00 80
       0.0 0.0 0.0 -0.0
0000a0 00 00 00 80 00 00 00 00 00 00 00 00 00 00 00 00
       -0.0 0.0 0.0 0.0
0000b0 00 00 00 00 00 00 00 80 00 00 00 00 00 00 00 00
       0.0 -0.0 0.0 0.0
0000c0 00 00 00 00 00 00 00 80 00 00 00 00 00 00 00 00
       0.0 -0.0 0.0 0.0
0000d0 00 00 00 80 00 00 00 80 00 00 00 00 00 00 00 80
       -0.0 -0.0 0.0 -0.0
0000e0 00 00 00 80 00 00 00 80 00 00 00 80 00 00 00 80
       -0.0 -0.0 -0.0 -0.0
0000f0 00 00 00 80 00 00 00 80 00 00 00 80 00 00 00 00
       -0.0 -0.0 -0.0 0.0
000100 00 00 00 00 00 00 00 00 00 00 00 80 00 00 00 00
       0.0 0.0 -0.0 0.0
000110 00 00 00 80 00 00 00 00 00 00 00 80 00 00 00 00
       -0.0 0.0 -0.0 0.0
000120 00 00 00 00 00 00 00 00 00 00 00 00 00 00 00 80
       0.0 0.0 0.0 -0.0
000130 00 00 00 00 00 00 00 00 00 00 00 80 00 00 00 00
       0.0 0.0 -0.0 0.0
000140 00 00 00 00 00 00 00 80 00 00 00 80 00 00 00 80
       0.0 -0.0 -0.0 -0.0
000150 00 00 00 00 00 00 00 80 00 00 00 00 00 00 00 80
       0.0 -0.0 0.0 -0.0
000160 00 00 00 00 00 00 00 80 00 00 00 80 00 00 00 80
       0.0 -0.0 -0.0 -0.0
000170 00 00 00 00 00 00 00 80 00 00 00 80 00 00 00 00
       0.0 -0.0 -0.0 0.0
000180 00 00 00 80 00 00 00 00 00 00 00 00 00 00 00 00
       -0.0 0.0 0.0 0.0
000190 00 00 00 00 00 00 00 80 00 00 00 00 00 00 00 00
       0.0 -0.0 0.0 0.0
0001a0 00 00 00 00 00 00 00 00 00 00 00 80 00 00 00 00
       0.0 0.0 -0.0 0.0
0001b0 00 00 00 00 00 00 00 00 00 00 00 80 00 00 00 80
       0.0 0.0 -0.0 -0.0
0001c0 00 00 00 00 00 00 00 80 00 00 00 80 00 00 00 80
       0.0 -0.0 -0.0 -0.0
0001d0 00 00 00 80 00 00 00 00 00 00 00 00 00 00 00 00
       -0.0 0.0 0.0 0.0
0001e0 00 00 00 80 00 00 00 00 00 00 00 00 00 00 00 00
       -0.0 0.0 0.0 0.0
0001f0 00 00 00 80 00 00 00 80 00 00 00 80 00 00 00 00
       -0.0 -0.0 -0.0 0.0
000200 00 00 00 80 00 00 00 00 00 00 00 00 00 00 00 80
       -0.0 0.0 0.0 -0.0
000210 00 00 00 80 00 00 00 00 00 00 00 80 00 00 00 00
       -0.0 0.0 -0.0 0.0
000220 00 00 00 00 00 00 00 80 00 00 00 00 00 00 00 80
       0.0 -0.0 0.0 -0.0
000230 00 00 00 80 00 00 00 80 00 00 00 80 00 00 00 00
       -0.0 -0.0 -0.0 0.0
000240 00 00 00 00 00 00 00 00 00 00 00 80 00 00 00 00
       0.0 0.0 -0.0 0.0
000250 00 00 00 80 00 00 00 00 00 00 00 80 00 00 00 80
       -0.0 0.0 -0.0 -0.0
000260 00 00 00 80 00 00 00 00 00 00 00 00 00 00 00 00
       -0.0 0.0 0.0 0.0
000270 00 00 00 80 00 00 00 80 00 00 00 80 00 00 00 80
       -0.0 -0.0 -0.0 -0.0
000280 00 00 00 80 00 00 00 80 00 00 00 00 00 00 00 80
       -0.0 -0.0 0.0 -0.0
000290 00 00 00 00 00 00 00 80 00 00 00 00 00 00 00 80
       0.0 -0.0 0.0 -0.0
0002a0 00 00 00 00 00 00 00 00 00 00 00 00 00 00 00 00
       0.0 0.0 0.0 0.0
0002b0 00 00 00 80 00 00 00 00 00 00 00 80 00 00 00 80
       -0.0 0.0 -0.0 -0.0
0002c0 00 00 00 00 00 00 00 80 00 00 00 00 00 00 00 80
       0.0 -0.0 0.0 -0.0
0002d0 00 00 00 00 00 00 00 00 00 00 00 80 00 00 00 00
       0.0 0.0 -0.0 0.0
0002e0 00 00 00 00 00 00 00 80 00 00 00 00 00 00 00 80
       0.0 -0.0 0.0 -0.0
0002f0 00 00 00 80 00 00 00 80 00 00 00 80 00 00 00 00
       -0.0 -0.0 -0.0 0.0
000300 00 00 00 00 00 00 00 00 00 00 00 80 00 00 00 80
       0.0 0.0 -0.0 -0.0
000310 00 00 00 00 00 00 00 00 00 00 00 80 00 00 00 00
       0.0 0.0 -0.0 0.0
000320 00 00 00 00 00 00 00 80 00 00 00 00 00 00 00 80
       0.0 -0.0 0.0 -0.0
000330 00 00 00 80 00 00 00 00 00 00 00 80 00 00 00 80
       -0.0 0.0 -0.0 -0.0
000340 00 00 00 00 00 00 00 00 00 00 00 80 00 00 00 80
       0.0 0.0 -0.0 -0.0
000350 00 00 00 00 00 00 00 00 00 00 00 00 00 00 00 80
       0.0 0.0 0.0 -0.0
000360 00 00 00 80 00 00 00 00 00 00 00 00 00 00 00 00
       -0.0 0.0 0.0 0.0
000370 00 00 00 00 00 00 00 00 00 00 00 00 00 00 00 80
       0.0 0.0 0.0 -0.0
000380 00 00 00 80 00 00 00 00 00 00 00 00 00 00 00 00
       -0.0 0.0 0.0 0.0
000390 00 00 00 00 00 00 00 80 00 00 00 80 00 00 00 00
       0.0 -0.0 -0.0 0.0
0003a0 00 00 00 00 00 00 00 00 00 00 00 80 00 00 00 80
       0.0 0.0 -0.0 -0.0
0003b0 00 00 00 80 00 00 00 00 00 00 00 80 00 00 00 80
       -0.0 0.0 -0.0 -0.0
0003c0 00 00 00 80 00 00 00 00 00 00 00 80 00 00 00 80
       -0.0 0.0 -0.0 -0.0
0003d0 00 00 00 80 00 00 00 00 00 00 00 00 00 00 00 00
       -0.0 0.0 0.0 0.0
0003e0 00 00 00 80 00 00 00 80 00 00 00 80 00 00 00 00
       -0.0 -0.0 -0.0 0.0
0003f0 00 00 00 80 00 00 00 00 00 00 00 00 00 00 00 00
       -0.0 0.0 0.0 0.0

95 f4 [32]
000000 74 63 4c 82 ca 69 da be d1 a3 b5 3e 75 e9 e4 3e
       -1.5016095e-37 -0.42658836 0.35476544 0.44709364
000010 f4 3b 34 3f fe cb 8a 3e 2c ee c0 3d 8b 00 12 3f
       0.7040398 0.2710876 0.09420428 0.5703208
000020 d4 3f 97 bf 58 83 6c bf 2f d5 c9 be 49 e8 43 3e
       -1.1816354 -0.92387915 -0.3942046 0.19131579
000030 92 27 07 3f 97 c6 d3 be cd d7 77 bf 80 2f 12 3b
       0.52794755 -0.4136245 -0.9681366 0.0022306144
000040 55 68 91 be 42 e1 45 bf 06 8f aa 3e 4d 2f 25 3e
       -0.28399912 -0.7729684 0.33312243 0.16131325
000050 84 64 17 3f ca 14 62 c0 08 14 1a bf be 2b 72 3e
       0.5913775 -3.5325189 -0.60186815 0.23649499
000060 21 38 ae bf 4e 5d 9a 3f 24 62 a8 be 29 bb 0e c0
       -1.3610879 1.2059724 -0.32887375 -2.2301733
000070 0d 6e 80 be 32 c5 28 be 00 ed 0e c0 6e bb 34 bf
       -0.25083962 -0.16481474 -2.2332153 -0.70598495

97 f4 [32, 32, 3, 3]
000000 17 0c 00 80 0a 99 00 80 ff 9d 00 00 43 2b 00 80
       -4.337e-42 -5.49e-41 5.6678e-41 -1.552e-41
000010 56 29 00 80 ab 36 00 00 b6 41 00 80 3d 30 00 00
       -1.4829e-41 1.9611e-41 -2.3573e-41 1.7305e-41
000020 98 2f 00 00 df 6f 25 bd e2 89 1c 3c c6 2a cc bc
       1.7073e-41 -0.04038989 0.009554358 -0.02492274
000030 d6 b4 1a bd 83 ea 9f 3c da 82 5d 3c 1d c5 80 bc
       -0.037770115 0.019521004 0.013519967 -0.015718991
000040 08 15 92 3c 4d 59 83 3c ca 5c bb bc 25 c2 e3 bb
       0.017832294 0.016033793 -0.022871394 -0.006950634
000050 75 aa a8 3c 5c 5e e3 bb 25 d7 0f bc 57 0b a6 bc
       0.020589093 -0.0069387387 -0.008779322 -0.02026908
000060 52 50 e9 3b b4 6b 1f 3c 8c 76 9c bc 1f 9c 8b bb
       0.0071201706 0.009730268 -0.019099496 -0.0042605544
000070 96 87 f9 ba 63 23 56 3c c7 98 ba bb 7f 66 92 bb
       -0.00190376 0.01306996 -0.005694482 -0.004467785
000080 3b f8 bf bc f7 23 2d bd b0 7d 76 bc ba d0 e2 bc
       -0.023433795 -0.042270627 -0.015044615 -0.02768742
000090 bf 9b ff bc af 03 6f bc 3f c3 5a bc 32 fb 7d bb
       -0.031202195 -0.014588281 -0.013352214 -0.003875446
0000a0 12 bf ef 3c 65 01 20 3d e1 84 0a bc b9 ce 90 bc
       0.029265914 0.03906383 -0.008454532 -0.017676698
0000b0 d5 c1 04 bc 4f 1a 86 3c 15 42 67 3c 4b a8 f4 bc
       -0.008102854 0.016369967 0.014114876 -0.029865405
0000c0 92 e8 58 bd 2f 1e 4c bc 15 a6 a4 ba 1d e5 83 bc
       -0.05295617 -0.012458368 -0.0012561703 -0.01610046
0000d0 5c b6 80 3c cf 34 af 3b 63 16 11 3d 3d f9 ea 3b
       0.015711956 0.0053468714 0.03542174 0.007170825
0000e0 1b a3 84 3c cd cf 18 3c c0 2a 28 3a 63 ce 5e bc
       0.016191056 0.009326887 0.00064150617 -0.013599011
0000f0 45 64 09 3d 03 7e 53 3c 74 b3 63 3c 7f e9 92 3c
       0.03354289 0.0129084615 0.013897765 0.017933605
000100 8d 36 52 bb dc 3a 6b 3b ff 3f bf bc 0b b5 85 bc
       -0.0032075972 0.0035893237 -0.023345945 -0.01632168
000110 6c 27 39 3c df df e4 3c 84 6e 52 bc 33 51 9a bc
       0.011300903 0.027938781 -0.012843732 -0.018837547
000120 95 b0 9e bc f3 3c 05 bc a6 76 65 bd 78 c2 4d 3c
       -0.01937131 -0.008132207 -0.056021355 0.012558572
000130 6f 86 8f 3c ed 15 24 3d 5c 36 e3 bb a5 07 82 3c
       0.017520158 0.040059973 -0.0069339704 0.015872786
000140 e5 91 5c bc f6 84 58 bd ca 88 93 bb 48 65 8c 3b
       -0.013462518 -0.052861176 -0.0045023905 0.0042845346
000150 b5 1d 1b bd bb 95 e4 bb 9a f7 1f bc 84 ee d9 bb
       -0.037870128 -0.006975857 -0.009763623 -0.0066507477
000160 9d 7e 31 3c 54 b3 04 bc f7 5b 4f bb e4 77 4b bc
       0.01083341 -0.008099396 -0.0031640509 -0.012418721
000170 28 65 ea 3c fc 95 12 3b 90 67 57 3c 87 ff fc b9
       0.028612688 0.002236723 0.01314725 -0.00048255568
000180 22 89 08 bc 33 1e 18 bc df ce 11 bd 16 da 1a bc
       -0.008333476 -0.009284544 -0.03559768 -0.00945141
000190 2b 13 00 bc 98 d5 5b bc b1 9c 11 3b ca 90 6f bb
       -0.00781707 -0.013417624 0.002221864 -0.0036554807
0001a0 a2 70 a6 bc 4b 6a 73 3c 9c 53 2a 3c 58 04 b1 3b
       -0.02031738 0.014856885 0.010395911 0.005402129
0001b0 19 db bf bb aa a4 90 3c 13 20 2e bd e0 c9 27 bb
       -0.005854976 0.017656643 -0.042511057 -0.0025602505
0001c0 1e 94 b9 3c 85 24 04 bd c4 e7 3d bc 84 c8 ae 3c
       0.022653636 -0.03226139 -0.011590902 0.021335848
0001d0 cf 12 10 bd a0 e0 20 3c c1 2a 5f 3c 12 db 94 3c
       -0.035174187 0.00981918 0.013621033 0.018170867
0001e0 b4 58 90 3c 99 00 10 3c 72 a7 9e bc 90 b3 be 3c
       0.017620422 0.008789205 -0.019366954 0.023278981
0001f0 f4 89 70 ba c1 dd 9a 3c 54 26 2c bd 80 2c 9f bc
       -0.000917583 0.018904569 -0.04202874 -0.019430399
000200 e1 2a 93 bc 1a 8a a7 bc 67 62 74 3c 31 d6 f2 ba
       -0.017964782 -0.020451594 0.014916039 -0.0018526969
000210 0d 72 0e bd e9 86 cc bb 2b 02 38 3b f4 4d 94 3b
       -0.034776736 -0.0062416685 0.0028077464 0.0045258943
000220 b3 02 62 bc 92 bc ac 3c 45 6c 92 3c 25 ce db bc
       -0.013794589 0.021086011 0.017873893 -0.026831696
000230 e7 1f 86 3b 6b ad 74 3b 73 73 ce 3c f7 c5 b4 bb
       0.0040931585 0.003733481 0.025201535 -0.0055167633
000240 86 1a 16 39 8c 46 62 3c 8f 65 26 3c ac 6a dc bb
       0.00014314995 0.013810765 0.010156049 -0.0067265835
000250 26 d2 10 3c 50 46 10 3d 0c 3b 91 bb 29 44 ab 39
       0.008839166 0.035223305 -0.0044320878 0.00032666445
000260 73 6b b4 3c dd d7 18 3c 16 97 47 3c 65 db 4c bc
       0.022023892 0.00932881 0.012182018 -0.01250348
000270 17 b4 96 3c 5d 28 e2 3c a0 47 2d 3d 2b a3 6f bc
       0.01839642 0.027607137 0.042304635 -0.014626305
000280 39 8c 32 bd 2f 37 c6 bc 54 9d 06 3d 0c 46 1f 3c
       -0.043590758 -0.024196235 0.032864884 0.00972129
000290 12 54 a8 bc 6f 69 96 3c 41 be 87 ba 03 84 da bc
       -0.0205479 0.018360822 -0.0010356383 -0.026674276
0002a0 34 ba 83 3c e4 ee 90 3c 79 7f e9 3b 1b ea b2 bc
       0.01608 0.017692037 0.0071257916 -0.021840146
0002b0 7b b1 89 bb 7f 5c 24 bd e8 df 32 3c 53 09 7f 3b
       -0.0042020655 -0.040127274 0.010917641 0.003891547
0002c0 c6 be 4e 3b 61 d2 14 bd 13 45 9c 3b c0 40 46 3c
       0.0031546815 -0.036333445 0.0047689765 0.012100399
0002d0 25 75 bd bb 3b a3 43 3c 90 9a 20 3c 5d b1 d4 bc
       -0.005781787 0.011940773 0.009802476 -0.02596348
0002e0 3c 1e 71 3a 1e f5 af bc 41 87 cf bc f8 b7 65 bc
       0.00091979257 -0.021479186 -0.025333049 -0.014020912
0002f0 c6 14 c5 3b e5 9c 21 ba b4 d8 a3 bc 4b 0f e0 bc
       0.0060144393 -0.00061650417 -0.020000793 -0.027351042
000300 7c d4 4c 3b 3a 17 44 bc 84 2e b0 bc 52 e8 42 bc
       0.003125458 -0.011968428 -0.021506555 -0.01189621
000310 47 f4 41 bc 64 54 a0 bc 8e 81 07 bd 7e 13 09 3b
       -0.011838025 -0.01957149 -0.033082537 0.002091616
000320 ad c6 4d 3b 10 18 20 b9 7b a8 92 bb 11 a1 e0 b9
       0.0031398938 -0.00015267753 -0.004475651 -0.00042844613
000330 44 f5 14 3d cc 53 ab 3c ee d0 d8 3c fe ee 1f 3d
       0.036366716 0.02091398 0.026466813 0.03904628
000340 7d 8d 85 bc 17 a4 46 3c 3c 39 31 3b 86 21 92 bb
       -0.016302818 0.012124083 0.002704217 -0.0044595627
000350 26 ce 66 bc f1 15 f3 3c c5 48 14 bc 22 8b cc bc
       -0.014087236 0.029673548 -0.009050553 -0.024968687
000360 82 ad f2 ba 3e a8 b4 bb 04 17 23 bc c5 0f 52 bc
       -0.0018514844 -0.00551322 -0.009954218 -0.012821143
000370 35 53 57 bb 45 7e 8f bc 64 42 d1 bb 4b a9 41 bc
       -0.0032855992 -0.017516265 -0.006386088 -0.011820148
000380 71 30 87 3c 08 20 6f bc c6 f2 f7 3b f4 1e 0f bc
       0.01650259 -0.014595039 0.0075667826 -0.008735407
000390 3e 85 3d 3c 06 e4 51 3c 1c ba e1 ba 1d d7 04 bd
       0.011567412 0.012810713 -0.0017221603 -0.03243171
0003a0 13 c9 ff bb f2 ef a5 bb 40 ac 49 ba 82 0f 1f bb
       -0.0078059523 -0.005064004 -0.0007693209 -0.0024270718
0003b0 97 62 45 ba 02 97 f8 3c 64 05 7c bb a6 74 3d 3c
       -0.00075296446 0.030345444 -0.0038455362 0.011563456
0003c0 14 6d d7 bb 20 a3 30 3c 7e 00 08 bd 50 53 1e bc
       -0.0065742824 0.0107810795 -0.033203594 -0.009663418
0003d0 60 81 1f bc 96 f2 59 bc e8 07 ab bc bd 4d aa bc
       -0.009735435 -0.013302466 -0.020877793 -0.020789022
0003e0 a1 f4 f0 bc 06 5e 81 3c 35 77 b6 3c 3f 25 da bb
       -0.029413523 0.015791904 0.02227364 -0.006657272
0003f0 e0 8e eb bc a5 53 b9 bc 69 da 38 bd 04 20 24 3c
       -0.028754652 -0.022622893 -0.045130167 0.010017399

98 f4 [32]
000000 2c 3f 87 3e 4b ba 20 3e a6 60 3d bb fc 63 69 be
       0.26415384 0.15696065 -0.0028896718 -0.22792047
000010 f0 86 05 3e 7c 8f c7 3c 8d 56 2f 3e b2 dc 0a be
       0.13039756 0.02436041 0.1712286 -0.13560751
000020 3e ca 0e be 49 d3 05 3e 20 33 69 be 4b a7 89 be
       -0.13944337 0.1306888 -0.22773409 -0.26885447
000030 a9 59 f7 bd 8d 77 d1 bc 8c e5 e1 bd d0 56 a6 be
       -0.12077648 -0.025569702 -0.11030111 -0.32488108
000040 3a a5 9f 3d 68 55 03 3c 74 f9 26 3e 81 f1 99 bd
       0.07795186 0.008015968 0.16306096 -0.07516766
000050 06 03 c5 3d 29 6c 17 bf 8a 20 47 3e 13 30 e4 bd
       0.09619717 -0.59149414 0.19446006 -0.11141982
000060 7f 8a d9 3e 4c 12 41 3e 64 7b 16 bd 18 ee 2c 3c
       0.42488477 0.18854636 -0.03673877 0.010554813
000070 aa 5d 0a 3e 0b 67 1f 3e cf 2f 37 3e aa dc 6d 3e
       0.13512293 0.15566652 0.17889331 0.23228708
